<?xml version="1.0"?>
<net name="Model2" version="11">
	<layers>
		<layer id="0" name="x" type="Parameter" version="opset1">
			<data shape="1,3,90,160" element_type="f32" />
			<output>
				<port id="0" precision="FP32" names="x">
					<dim>1</dim>
					<dim>3</dim>
					<dim>90</dim>
					<dim>160</dim>
				</port>
			</output>
		</layer>
		<layer id="1" name="Constant_116" type="Const" version="opset1">
			<data element_type="f32" shape="96, 3, 7, 7" offset="0" size="56448" />
			<output>
				<port id="0" precision="FP32" names="63,self.features.0.weight">
					<dim>96</dim>
					<dim>3</dim>
					<dim>7</dim>
					<dim>7</dim>
				</port>
			</output>
		</layer>
		<layer id="2" name="aten::conv2d/Convolution" type="Convolution" version="opset1">
			<data strides="2, 2" dilations="1, 1" pads_begin="0, 0" pads_end="0, 0" auto_pad="explicit" />
			<input>
				<port id="0" precision="FP32">
					<dim>1</dim>
					<dim>3</dim>
					<dim>90</dim>
					<dim>160</dim>
				</port>
				<port id="1" precision="FP32">
					<dim>96</dim>
					<dim>3</dim>
					<dim>7</dim>
					<dim>7</dim>
				</port>
			</input>
			<output>
				<port id="2" precision="FP32">
					<dim>1</dim>
					<dim>96</dim>
					<dim>42</dim>
					<dim>77</dim>
				</port>
			</output>
		</layer>
		<layer id="3" name="aten::conv2d/Reshape" type="Const" version="opset1">
			<data element_type="f32" shape="1, 96, 1, 1" offset="56448" size="384" />
			<output>
				<port id="0" precision="FP32">
					<dim>1</dim>
					<dim>96</dim>
					<dim>1</dim>
					<dim>1</dim>
				</port>
			</output>
		</layer>
		<layer id="4" name="aten::conv2d/Add" type="Add" version="opset1">
			<data auto_broadcast="numpy" />
			<input>
				<port id="0" precision="FP32">
					<dim>1</dim>
					<dim>96</dim>
					<dim>42</dim>
					<dim>77</dim>
				</port>
				<port id="1" precision="FP32">
					<dim>1</dim>
					<dim>96</dim>
					<dim>1</dim>
					<dim>1</dim>
				</port>
			</input>
			<output>
				<port id="2" precision="FP32" names="64_1">
					<dim>1</dim>
					<dim>96</dim>
					<dim>42</dim>
					<dim>77</dim>
				</port>
			</output>
		</layer>
		<layer id="5" name="aten::relu_/Relu" type="ReLU" version="opset1">
			<input>
				<port id="0" precision="FP32">
					<dim>1</dim>
					<dim>96</dim>
					<dim>42</dim>
					<dim>77</dim>
				</port>
			</input>
			<output>
				<port id="1" precision="FP32" names="64,input.6">
					<dim>1</dim>
					<dim>96</dim>
					<dim>42</dim>
					<dim>77</dim>
				</port>
			</output>
		</layer>
		<layer id="6" name="aten::max_pool2d/MaxPool" type="MaxPool" version="opset14">
			<data strides="2, 2" dilations="1, 1" pads_begin="0, 0" pads_end="0, 0" kernel="3, 3" rounding_type="ceil_torch" auto_pad="explicit" index_element_type="i64" axis="2" />
			<input>
				<port id="0" precision="FP32">
					<dim>1</dim>
					<dim>96</dim>
					<dim>42</dim>
					<dim>77</dim>
				</port>
			</input>
			<output>
				<port id="1" precision="FP32" names="66,input.14">
					<dim>1</dim>
					<dim>96</dim>
					<dim>21</dim>
					<dim>38</dim>
				</port>
				<port id="2" precision="I64">
					<dim>1</dim>
					<dim>96</dim>
					<dim>21</dim>
					<dim>38</dim>
				</port>
			</output>
		</layer>
		<layer id="7" name="Constant_112" type="Const" version="opset1">
			<data element_type="f32" shape="16, 96, 1, 1" offset="56832" size="6144" />
			<output>
				<port id="0" precision="FP32" names="61,self.features.3.squeeze.weight">
					<dim>16</dim>
					<dim>96</dim>
					<dim>1</dim>
					<dim>1</dim>
				</port>
			</output>
		</layer>
		<layer id="8" name="aten::conv2d/Convolution_1" type="Convolution" version="opset1">
			<data strides="1, 1" dilations="1, 1" pads_begin="0, 0" pads_end="0, 0" auto_pad="explicit" />
			<input>
				<port id="0" precision="FP32">
					<dim>1</dim>
					<dim>96</dim>
					<dim>21</dim>
					<dim>38</dim>
				</port>
				<port id="1" precision="FP32">
					<dim>16</dim>
					<dim>96</dim>
					<dim>1</dim>
					<dim>1</dim>
				</port>
			</input>
			<output>
				<port id="2" precision="FP32">
					<dim>1</dim>
					<dim>16</dim>
					<dim>21</dim>
					<dim>38</dim>
				</port>
			</output>
		</layer>
		<layer id="9" name="aten::conv2d/Reshape_1" type="Const" version="opset1">
			<data element_type="f32" shape="1, 16, 1, 1" offset="62976" size="64" />
			<output>
				<port id="0" precision="FP32">
					<dim>1</dim>
					<dim>16</dim>
					<dim>1</dim>
					<dim>1</dim>
				</port>
			</output>
		</layer>
		<layer id="10" name="aten::conv2d/Add_1" type="Add" version="opset1">
			<data auto_broadcast="numpy" />
			<input>
				<port id="0" precision="FP32">
					<dim>1</dim>
					<dim>16</dim>
					<dim>21</dim>
					<dim>38</dim>
				</port>
				<port id="1" precision="FP32">
					<dim>1</dim>
					<dim>16</dim>
					<dim>1</dim>
					<dim>1</dim>
				</port>
			</input>
			<output>
				<port id="2" precision="FP32" names="67_1">
					<dim>1</dim>
					<dim>16</dim>
					<dim>21</dim>
					<dim>38</dim>
				</port>
			</output>
		</layer>
		<layer id="11" name="aten::relu_/Relu_1" type="ReLU" version="opset1">
			<input>
				<port id="0" precision="FP32">
					<dim>1</dim>
					<dim>16</dim>
					<dim>21</dim>
					<dim>38</dim>
				</port>
			</input>
			<output>
				<port id="1" precision="FP32" names="67">
					<dim>1</dim>
					<dim>16</dim>
					<dim>21</dim>
					<dim>38</dim>
				</port>
			</output>
		</layer>
		<layer id="12" name="Constant_108" type="Const" version="opset1">
			<data element_type="f32" shape="64, 16, 1, 1" offset="63040" size="4096" />
			<output>
				<port id="0" precision="FP32" names="59,self.features.3.expand1x1.weight">
					<dim>64</dim>
					<dim>16</dim>
					<dim>1</dim>
					<dim>1</dim>
				</port>
			</output>
		</layer>
		<layer id="13" name="aten::conv2d/Convolution_2" type="Convolution" version="opset1">
			<data strides="1, 1" dilations="1, 1" pads_begin="0, 0" pads_end="0, 0" auto_pad="explicit" />
			<input>
				<port id="0" precision="FP32">
					<dim>1</dim>
					<dim>16</dim>
					<dim>21</dim>
					<dim>38</dim>
				</port>
				<port id="1" precision="FP32">
					<dim>64</dim>
					<dim>16</dim>
					<dim>1</dim>
					<dim>1</dim>
				</port>
			</input>
			<output>
				<port id="2" precision="FP32">
					<dim>1</dim>
					<dim>64</dim>
					<dim>21</dim>
					<dim>38</dim>
				</port>
			</output>
		</layer>
		<layer id="14" name="aten::conv2d/Reshape_2" type="Const" version="opset1">
			<data element_type="f32" shape="1, 64, 1, 1" offset="67136" size="256" />
			<output>
				<port id="0" precision="FP32">
					<dim>1</dim>
					<dim>64</dim>
					<dim>1</dim>
					<dim>1</dim>
				</port>
			</output>
		</layer>
		<layer id="15" name="aten::conv2d/Add_2" type="Add" version="opset1">
			<data auto_broadcast="numpy" />
			<input>
				<port id="0" precision="FP32">
					<dim>1</dim>
					<dim>64</dim>
					<dim>21</dim>
					<dim>38</dim>
				</port>
				<port id="1" precision="FP32">
					<dim>1</dim>
					<dim>64</dim>
					<dim>1</dim>
					<dim>1</dim>
				</port>
			</input>
			<output>
				<port id="2" precision="FP32" names="69_1">
					<dim>1</dim>
					<dim>64</dim>
					<dim>21</dim>
					<dim>38</dim>
				</port>
			</output>
		</layer>
		<layer id="16" name="aten::relu_/Relu_2" type="ReLU" version="opset1">
			<input>
				<port id="0" precision="FP32">
					<dim>1</dim>
					<dim>64</dim>
					<dim>21</dim>
					<dim>38</dim>
				</port>
			</input>
			<output>
				<port id="1" precision="FP32" names="69">
					<dim>1</dim>
					<dim>64</dim>
					<dim>21</dim>
					<dim>38</dim>
				</port>
			</output>
		</layer>
		<layer id="17" name="Constant_104" type="Const" version="opset1">
			<data element_type="f32" shape="64, 16, 3, 3" offset="67392" size="36864" />
			<output>
				<port id="0" precision="FP32" names="57,self.features.3.expand3x3.weight">
					<dim>64</dim>
					<dim>16</dim>
					<dim>3</dim>
					<dim>3</dim>
				</port>
			</output>
		</layer>
		<layer id="18" name="aten::conv2d/Convolution_3" type="Convolution" version="opset1">
			<data strides="1, 1" dilations="1, 1" pads_begin="1, 1" pads_end="1, 1" auto_pad="explicit" />
			<input>
				<port id="0" precision="FP32">
					<dim>1</dim>
					<dim>16</dim>
					<dim>21</dim>
					<dim>38</dim>
				</port>
				<port id="1" precision="FP32">
					<dim>64</dim>
					<dim>16</dim>
					<dim>3</dim>
					<dim>3</dim>
				</port>
			</input>
			<output>
				<port id="2" precision="FP32">
					<dim>1</dim>
					<dim>64</dim>
					<dim>21</dim>
					<dim>38</dim>
				</port>
			</output>
		</layer>
		<layer id="19" name="aten::conv2d/Reshape_3" type="Const" version="opset1">
			<data element_type="f32" shape="1, 64, 1, 1" offset="104256" size="256" />
			<output>
				<port id="0" precision="FP32">
					<dim>1</dim>
					<dim>64</dim>
					<dim>1</dim>
					<dim>1</dim>
				</port>
			</output>
		</layer>
		<layer id="20" name="aten::conv2d/Add_3" type="Add" version="opset1">
			<data auto_broadcast="numpy" />
			<input>
				<port id="0" precision="FP32">
					<dim>1</dim>
					<dim>64</dim>
					<dim>21</dim>
					<dim>38</dim>
				</port>
				<port id="1" precision="FP32">
					<dim>1</dim>
					<dim>64</dim>
					<dim>1</dim>
					<dim>1</dim>
				</port>
			</input>
			<output>
				<port id="2" precision="FP32" names="71_1">
					<dim>1</dim>
					<dim>64</dim>
					<dim>21</dim>
					<dim>38</dim>
				</port>
			</output>
		</layer>
		<layer id="21" name="aten::relu_/Relu_3" type="ReLU" version="opset1">
			<input>
				<port id="0" precision="FP32">
					<dim>1</dim>
					<dim>64</dim>
					<dim>21</dim>
					<dim>38</dim>
				</port>
			</input>
			<output>
				<port id="1" precision="FP32" names="71">
					<dim>1</dim>
					<dim>64</dim>
					<dim>21</dim>
					<dim>38</dim>
				</port>
			</output>
		</layer>
		<layer id="22" name="aten::cat/Concat" type="Concat" version="opset1">
			<data axis="1" />
			<input>
				<port id="0" precision="FP32">
					<dim>1</dim>
					<dim>64</dim>
					<dim>21</dim>
					<dim>38</dim>
				</port>
				<port id="1" precision="FP32">
					<dim>1</dim>
					<dim>64</dim>
					<dim>21</dim>
					<dim>38</dim>
				</port>
			</input>
			<output>
				<port id="2" precision="FP32" names="74,input.18">
					<dim>1</dim>
					<dim>128</dim>
					<dim>21</dim>
					<dim>38</dim>
				</port>
			</output>
		</layer>
		<layer id="23" name="Constant_100" type="Const" version="opset1">
			<data element_type="f32" shape="16, 128, 1, 1" offset="104512" size="8192" />
			<output>
				<port id="0" precision="FP32" names="55,self.features.4.squeeze.weight">
					<dim>16</dim>
					<dim>128</dim>
					<dim>1</dim>
					<dim>1</dim>
				</port>
			</output>
		</layer>
		<layer id="24" name="aten::conv2d/Convolution_4" type="Convolution" version="opset1">
			<data strides="1, 1" dilations="1, 1" pads_begin="0, 0" pads_end="0, 0" auto_pad="explicit" />
			<input>
				<port id="0" precision="FP32">
					<dim>1</dim>
					<dim>128</dim>
					<dim>21</dim>
					<dim>38</dim>
				</port>
				<port id="1" precision="FP32">
					<dim>16</dim>
					<dim>128</dim>
					<dim>1</dim>
					<dim>1</dim>
				</port>
			</input>
			<output>
				<port id="2" precision="FP32">
					<dim>1</dim>
					<dim>16</dim>
					<dim>21</dim>
					<dim>38</dim>
				</port>
			</output>
		</layer>
		<layer id="25" name="aten::conv2d/Reshape_4" type="Const" version="opset1">
			<data element_type="f32" shape="1, 16, 1, 1" offset="112704" size="64" />
			<output>
				<port id="0" precision="FP32">
					<dim>1</dim>
					<dim>16</dim>
					<dim>1</dim>
					<dim>1</dim>
				</port>
			</output>
		</layer>
		<layer id="26" name="aten::conv2d/Add_4" type="Add" version="opset1">
			<data auto_broadcast="numpy" />
			<input>
				<port id="0" precision="FP32">
					<dim>1</dim>
					<dim>16</dim>
					<dim>21</dim>
					<dim>38</dim>
				</port>
				<port id="1" precision="FP32">
					<dim>1</dim>
					<dim>16</dim>
					<dim>1</dim>
					<dim>1</dim>
				</port>
			</input>
			<output>
				<port id="2" precision="FP32" names="75_1">
					<dim>1</dim>
					<dim>16</dim>
					<dim>21</dim>
					<dim>38</dim>
				</port>
			</output>
		</layer>
		<layer id="27" name="aten::relu_/Relu_4" type="ReLU" version="opset1">
			<input>
				<port id="0" precision="FP32">
					<dim>1</dim>
					<dim>16</dim>
					<dim>21</dim>
					<dim>38</dim>
				</port>
			</input>
			<output>
				<port id="1" precision="FP32" names="75">
					<dim>1</dim>
					<dim>16</dim>
					<dim>21</dim>
					<dim>38</dim>
				</port>
			</output>
		</layer>
		<layer id="28" name="Constant_96" type="Const" version="opset1">
			<data element_type="f32" shape="64, 16, 1, 1" offset="112768" size="4096" />
			<output>
				<port id="0" precision="FP32" names="53,self.features.4.expand1x1.weight">
					<dim>64</dim>
					<dim>16</dim>
					<dim>1</dim>
					<dim>1</dim>
				</port>
			</output>
		</layer>
		<layer id="29" name="aten::conv2d/Convolution_5" type="Convolution" version="opset1">
			<data strides="1, 1" dilations="1, 1" pads_begin="0, 0" pads_end="0, 0" auto_pad="explicit" />
			<input>
				<port id="0" precision="FP32">
					<dim>1</dim>
					<dim>16</dim>
					<dim>21</dim>
					<dim>38</dim>
				</port>
				<port id="1" precision="FP32">
					<dim>64</dim>
					<dim>16</dim>
					<dim>1</dim>
					<dim>1</dim>
				</port>
			</input>
			<output>
				<port id="2" precision="FP32">
					<dim>1</dim>
					<dim>64</dim>
					<dim>21</dim>
					<dim>38</dim>
				</port>
			</output>
		</layer>
		<layer id="30" name="aten::conv2d/Reshape_5" type="Const" version="opset1">
			<data element_type="f32" shape="1, 64, 1, 1" offset="116864" size="256" />
			<output>
				<port id="0" precision="FP32">
					<dim>1</dim>
					<dim>64</dim>
					<dim>1</dim>
					<dim>1</dim>
				</port>
			</output>
		</layer>
		<layer id="31" name="aten::conv2d/Add_5" type="Add" version="opset1">
			<data auto_broadcast="numpy" />
			<input>
				<port id="0" precision="FP32">
					<dim>1</dim>
					<dim>64</dim>
					<dim>21</dim>
					<dim>38</dim>
				</port>
				<port id="1" precision="FP32">
					<dim>1</dim>
					<dim>64</dim>
					<dim>1</dim>
					<dim>1</dim>
				</port>
			</input>
			<output>
				<port id="2" precision="FP32" names="77_1">
					<dim>1</dim>
					<dim>64</dim>
					<dim>21</dim>
					<dim>38</dim>
				</port>
			</output>
		</layer>
		<layer id="32" name="aten::relu_/Relu_5" type="ReLU" version="opset1">
			<input>
				<port id="0" precision="FP32">
					<dim>1</dim>
					<dim>64</dim>
					<dim>21</dim>
					<dim>38</dim>
				</port>
			</input>
			<output>
				<port id="1" precision="FP32" names="77">
					<dim>1</dim>
					<dim>64</dim>
					<dim>21</dim>
					<dim>38</dim>
				</port>
			</output>
		</layer>
		<layer id="33" name="Constant_92" type="Const" version="opset1">
			<data element_type="f32" shape="64, 16, 3, 3" offset="117120" size="36864" />
			<output>
				<port id="0" precision="FP32" names="51,self.features.4.expand3x3.weight">
					<dim>64</dim>
					<dim>16</dim>
					<dim>3</dim>
					<dim>3</dim>
				</port>
			</output>
		</layer>
		<layer id="34" name="aten::conv2d/Convolution_6" type="Convolution" version="opset1">
			<data strides="1, 1" dilations="1, 1" pads_begin="1, 1" pads_end="1, 1" auto_pad="explicit" />
			<input>
				<port id="0" precision="FP32">
					<dim>1</dim>
					<dim>16</dim>
					<dim>21</dim>
					<dim>38</dim>
				</port>
				<port id="1" precision="FP32">
					<dim>64</dim>
					<dim>16</dim>
					<dim>3</dim>
					<dim>3</dim>
				</port>
			</input>
			<output>
				<port id="2" precision="FP32">
					<dim>1</dim>
					<dim>64</dim>
					<dim>21</dim>
					<dim>38</dim>
				</port>
			</output>
		</layer>
		<layer id="35" name="aten::conv2d/Reshape_6" type="Const" version="opset1">
			<data element_type="f32" shape="1, 64, 1, 1" offset="153984" size="256" />
			<output>
				<port id="0" precision="FP32">
					<dim>1</dim>
					<dim>64</dim>
					<dim>1</dim>
					<dim>1</dim>
				</port>
			</output>
		</layer>
		<layer id="36" name="aten::conv2d/Add_6" type="Add" version="opset1">
			<data auto_broadcast="numpy" />
			<input>
				<port id="0" precision="FP32">
					<dim>1</dim>
					<dim>64</dim>
					<dim>21</dim>
					<dim>38</dim>
				</port>
				<port id="1" precision="FP32">
					<dim>1</dim>
					<dim>64</dim>
					<dim>1</dim>
					<dim>1</dim>
				</port>
			</input>
			<output>
				<port id="2" precision="FP32" names="79_1">
					<dim>1</dim>
					<dim>64</dim>
					<dim>21</dim>
					<dim>38</dim>
				</port>
			</output>
		</layer>
		<layer id="37" name="aten::relu_/Relu_6" type="ReLU" version="opset1">
			<input>
				<port id="0" precision="FP32">
					<dim>1</dim>
					<dim>64</dim>
					<dim>21</dim>
					<dim>38</dim>
				</port>
			</input>
			<output>
				<port id="1" precision="FP32" names="79">
					<dim>1</dim>
					<dim>64</dim>
					<dim>21</dim>
					<dim>38</dim>
				</port>
			</output>
		</layer>
		<layer id="38" name="aten::cat/Concat_1" type="Concat" version="opset1">
			<data axis="1" />
			<input>
				<port id="0" precision="FP32">
					<dim>1</dim>
					<dim>64</dim>
					<dim>21</dim>
					<dim>38</dim>
				</port>
				<port id="1" precision="FP32">
					<dim>1</dim>
					<dim>64</dim>
					<dim>21</dim>
					<dim>38</dim>
				</port>
			</input>
			<output>
				<port id="2" precision="FP32" names="82,input.21">
					<dim>1</dim>
					<dim>128</dim>
					<dim>21</dim>
					<dim>38</dim>
				</port>
			</output>
		</layer>
		<layer id="39" name="Constant_88" type="Const" version="opset1">
			<data element_type="f32" shape="32, 128, 1, 1" offset="154240" size="16384" />
			<output>
				<port id="0" precision="FP32" names="49,self.features.5.squeeze.weight">
					<dim>32</dim>
					<dim>128</dim>
					<dim>1</dim>
					<dim>1</dim>
				</port>
			</output>
		</layer>
		<layer id="40" name="aten::conv2d/Convolution_7" type="Convolution" version="opset1">
			<data strides="1, 1" dilations="1, 1" pads_begin="0, 0" pads_end="0, 0" auto_pad="explicit" />
			<input>
				<port id="0" precision="FP32">
					<dim>1</dim>
					<dim>128</dim>
					<dim>21</dim>
					<dim>38</dim>
				</port>
				<port id="1" precision="FP32">
					<dim>32</dim>
					<dim>128</dim>
					<dim>1</dim>
					<dim>1</dim>
				</port>
			</input>
			<output>
				<port id="2" precision="FP32">
					<dim>1</dim>
					<dim>32</dim>
					<dim>21</dim>
					<dim>38</dim>
				</port>
			</output>
		</layer>
		<layer id="41" name="aten::conv2d/Reshape_7" type="Const" version="opset1">
			<data element_type="f32" shape="1, 32, 1, 1" offset="170624" size="128" />
			<output>
				<port id="0" precision="FP32">
					<dim>1</dim>
					<dim>32</dim>
					<dim>1</dim>
					<dim>1</dim>
				</port>
			</output>
		</layer>
		<layer id="42" name="aten::conv2d/Add_7" type="Add" version="opset1">
			<data auto_broadcast="numpy" />
			<input>
				<port id="0" precision="FP32">
					<dim>1</dim>
					<dim>32</dim>
					<dim>21</dim>
					<dim>38</dim>
				</port>
				<port id="1" precision="FP32">
					<dim>1</dim>
					<dim>32</dim>
					<dim>1</dim>
					<dim>1</dim>
				</port>
			</input>
			<output>
				<port id="2" precision="FP32" names="83_1">
					<dim>1</dim>
					<dim>32</dim>
					<dim>21</dim>
					<dim>38</dim>
				</port>
			</output>
		</layer>
		<layer id="43" name="aten::relu_/Relu_7" type="ReLU" version="opset1">
			<input>
				<port id="0" precision="FP32">
					<dim>1</dim>
					<dim>32</dim>
					<dim>21</dim>
					<dim>38</dim>
				</port>
			</input>
			<output>
				<port id="1" precision="FP32" names="83">
					<dim>1</dim>
					<dim>32</dim>
					<dim>21</dim>
					<dim>38</dim>
				</port>
			</output>
		</layer>
		<layer id="44" name="Constant_84" type="Const" version="opset1">
			<data element_type="f32" shape="128, 32, 1, 1" offset="170752" size="16384" />
			<output>
				<port id="0" precision="FP32" names="47,self.features.5.expand1x1.weight">
					<dim>128</dim>
					<dim>32</dim>
					<dim>1</dim>
					<dim>1</dim>
				</port>
			</output>
		</layer>
		<layer id="45" name="aten::conv2d/Convolution_8" type="Convolution" version="opset1">
			<data strides="1, 1" dilations="1, 1" pads_begin="0, 0" pads_end="0, 0" auto_pad="explicit" />
			<input>
				<port id="0" precision="FP32">
					<dim>1</dim>
					<dim>32</dim>
					<dim>21</dim>
					<dim>38</dim>
				</port>
				<port id="1" precision="FP32">
					<dim>128</dim>
					<dim>32</dim>
					<dim>1</dim>
					<dim>1</dim>
				</port>
			</input>
			<output>
				<port id="2" precision="FP32">
					<dim>1</dim>
					<dim>128</dim>
					<dim>21</dim>
					<dim>38</dim>
				</port>
			</output>
		</layer>
		<layer id="46" name="aten::conv2d/Reshape_8" type="Const" version="opset1">
			<data element_type="f32" shape="1, 128, 1, 1" offset="187136" size="512" />
			<output>
				<port id="0" precision="FP32">
					<dim>1</dim>
					<dim>128</dim>
					<dim>1</dim>
					<dim>1</dim>
				</port>
			</output>
		</layer>
		<layer id="47" name="aten::conv2d/Add_8" type="Add" version="opset1">
			<data auto_broadcast="numpy" />
			<input>
				<port id="0" precision="FP32">
					<dim>1</dim>
					<dim>128</dim>
					<dim>21</dim>
					<dim>38</dim>
				</port>
				<port id="1" precision="FP32">
					<dim>1</dim>
					<dim>128</dim>
					<dim>1</dim>
					<dim>1</dim>
				</port>
			</input>
			<output>
				<port id="2" precision="FP32" names="85_1">
					<dim>1</dim>
					<dim>128</dim>
					<dim>21</dim>
					<dim>38</dim>
				</port>
			</output>
		</layer>
		<layer id="48" name="aten::relu_/Relu_8" type="ReLU" version="opset1">
			<input>
				<port id="0" precision="FP32">
					<dim>1</dim>
					<dim>128</dim>
					<dim>21</dim>
					<dim>38</dim>
				</port>
			</input>
			<output>
				<port id="1" precision="FP32" names="85">
					<dim>1</dim>
					<dim>128</dim>
					<dim>21</dim>
					<dim>38</dim>
				</port>
			</output>
		</layer>
		<layer id="49" name="Constant_80" type="Const" version="opset1">
			<data element_type="f32" shape="128, 32, 3, 3" offset="187648" size="147456" />
			<output>
				<port id="0" precision="FP32" names="45,self.features.5.expand3x3.weight">
					<dim>128</dim>
					<dim>32</dim>
					<dim>3</dim>
					<dim>3</dim>
				</port>
			</output>
		</layer>
		<layer id="50" name="aten::conv2d/Convolution_9" type="Convolution" version="opset1">
			<data strides="1, 1" dilations="1, 1" pads_begin="1, 1" pads_end="1, 1" auto_pad="explicit" />
			<input>
				<port id="0" precision="FP32">
					<dim>1</dim>
					<dim>32</dim>
					<dim>21</dim>
					<dim>38</dim>
				</port>
				<port id="1" precision="FP32">
					<dim>128</dim>
					<dim>32</dim>
					<dim>3</dim>
					<dim>3</dim>
				</port>
			</input>
			<output>
				<port id="2" precision="FP32">
					<dim>1</dim>
					<dim>128</dim>
					<dim>21</dim>
					<dim>38</dim>
				</port>
			</output>
		</layer>
		<layer id="51" name="aten::conv2d/Reshape_9" type="Const" version="opset1">
			<data element_type="f32" shape="1, 128, 1, 1" offset="335104" size="512" />
			<output>
				<port id="0" precision="FP32">
					<dim>1</dim>
					<dim>128</dim>
					<dim>1</dim>
					<dim>1</dim>
				</port>
			</output>
		</layer>
		<layer id="52" name="aten::conv2d/Add_9" type="Add" version="opset1">
			<data auto_broadcast="numpy" />
			<input>
				<port id="0" precision="FP32">
					<dim>1</dim>
					<dim>128</dim>
					<dim>21</dim>
					<dim>38</dim>
				</port>
				<port id="1" precision="FP32">
					<dim>1</dim>
					<dim>128</dim>
					<dim>1</dim>
					<dim>1</dim>
				</port>
			</input>
			<output>
				<port id="2" precision="FP32" names="87_1">
					<dim>1</dim>
					<dim>128</dim>
					<dim>21</dim>
					<dim>38</dim>
				</port>
			</output>
		</layer>
		<layer id="53" name="aten::relu_/Relu_9" type="ReLU" version="opset1">
			<input>
				<port id="0" precision="FP32">
					<dim>1</dim>
					<dim>128</dim>
					<dim>21</dim>
					<dim>38</dim>
				</port>
			</input>
			<output>
				<port id="1" precision="FP32" names="87">
					<dim>1</dim>
					<dim>128</dim>
					<dim>21</dim>
					<dim>38</dim>
				</port>
			</output>
		</layer>
		<layer id="54" name="aten::cat/Concat_2" type="Concat" version="opset1">
			<data axis="1" />
			<input>
				<port id="0" precision="FP32">
					<dim>1</dim>
					<dim>128</dim>
					<dim>21</dim>
					<dim>38</dim>
				</port>
				<port id="1" precision="FP32">
					<dim>1</dim>
					<dim>128</dim>
					<dim>21</dim>
					<dim>38</dim>
				</port>
			</input>
			<output>
				<port id="2" precision="FP32" names="90,input.25">
					<dim>1</dim>
					<dim>256</dim>
					<dim>21</dim>
					<dim>38</dim>
				</port>
			</output>
		</layer>
		<layer id="55" name="aten::max_pool2d/MaxPool_1" type="MaxPool" version="opset14">
			<data strides="2, 2" dilations="1, 1" pads_begin="0, 0" pads_end="0, 0" kernel="3, 3" rounding_type="ceil_torch" auto_pad="explicit" index_element_type="i64" axis="2" />
			<input>
				<port id="0" precision="FP32">
					<dim>1</dim>
					<dim>256</dim>
					<dim>21</dim>
					<dim>38</dim>
				</port>
			</input>
			<output>
				<port id="1" precision="FP32" names="91,input.29">
					<dim>1</dim>
					<dim>256</dim>
					<dim>10</dim>
					<dim>19</dim>
				</port>
				<port id="2" precision="I64">
					<dim>1</dim>
					<dim>256</dim>
					<dim>10</dim>
					<dim>19</dim>
				</port>
			</output>
		</layer>
		<layer id="56" name="Constant_76" type="Const" version="opset1">
			<data element_type="f32" shape="32, 256, 1, 1" offset="335616" size="32768" />
			<output>
				<port id="0" precision="FP32" names="43,self.features.7.squeeze.weight">
					<dim>32</dim>
					<dim>256</dim>
					<dim>1</dim>
					<dim>1</dim>
				</port>
			</output>
		</layer>
		<layer id="57" name="aten::conv2d/Convolution_10" type="Convolution" version="opset1">
			<data strides="1, 1" dilations="1, 1" pads_begin="0, 0" pads_end="0, 0" auto_pad="explicit" />
			<input>
				<port id="0" precision="FP32">
					<dim>1</dim>
					<dim>256</dim>
					<dim>10</dim>
					<dim>19</dim>
				</port>
				<port id="1" precision="FP32">
					<dim>32</dim>
					<dim>256</dim>
					<dim>1</dim>
					<dim>1</dim>
				</port>
			</input>
			<output>
				<port id="2" precision="FP32">
					<dim>1</dim>
					<dim>32</dim>
					<dim>10</dim>
					<dim>19</dim>
				</port>
			</output>
		</layer>
		<layer id="58" name="aten::conv2d/Reshape_10" type="Const" version="opset1">
			<data element_type="f32" shape="1, 32, 1, 1" offset="368384" size="128" />
			<output>
				<port id="0" precision="FP32">
					<dim>1</dim>
					<dim>32</dim>
					<dim>1</dim>
					<dim>1</dim>
				</port>
			</output>
		</layer>
		<layer id="59" name="aten::conv2d/Add_10" type="Add" version="opset1">
			<data auto_broadcast="numpy" />
			<input>
				<port id="0" precision="FP32">
					<dim>1</dim>
					<dim>32</dim>
					<dim>10</dim>
					<dim>19</dim>
				</port>
				<port id="1" precision="FP32">
					<dim>1</dim>
					<dim>32</dim>
					<dim>1</dim>
					<dim>1</dim>
				</port>
			</input>
			<output>
				<port id="2" precision="FP32" names="92_1">
					<dim>1</dim>
					<dim>32</dim>
					<dim>10</dim>
					<dim>19</dim>
				</port>
			</output>
		</layer>
		<layer id="60" name="aten::relu_/Relu_10" type="ReLU" version="opset1">
			<input>
				<port id="0" precision="FP32">
					<dim>1</dim>
					<dim>32</dim>
					<dim>10</dim>
					<dim>19</dim>
				</port>
			</input>
			<output>
				<port id="1" precision="FP32" names="92">
					<dim>1</dim>
					<dim>32</dim>
					<dim>10</dim>
					<dim>19</dim>
				</port>
			</output>
		</layer>
		<layer id="61" name="Constant_72" type="Const" version="opset1">
			<data element_type="f32" shape="128, 32, 1, 1" offset="368512" size="16384" />
			<output>
				<port id="0" precision="FP32" names="41,self.features.7.expand1x1.weight">
					<dim>128</dim>
					<dim>32</dim>
					<dim>1</dim>
					<dim>1</dim>
				</port>
			</output>
		</layer>
		<layer id="62" name="aten::conv2d/Convolution_11" type="Convolution" version="opset1">
			<data strides="1, 1" dilations="1, 1" pads_begin="0, 0" pads_end="0, 0" auto_pad="explicit" />
			<input>
				<port id="0" precision="FP32">
					<dim>1</dim>
					<dim>32</dim>
					<dim>10</dim>
					<dim>19</dim>
				</port>
				<port id="1" precision="FP32">
					<dim>128</dim>
					<dim>32</dim>
					<dim>1</dim>
					<dim>1</dim>
				</port>
			</input>
			<output>
				<port id="2" precision="FP32">
					<dim>1</dim>
					<dim>128</dim>
					<dim>10</dim>
					<dim>19</dim>
				</port>
			</output>
		</layer>
		<layer id="63" name="aten::conv2d/Reshape_11" type="Const" version="opset1">
			<data element_type="f32" shape="1, 128, 1, 1" offset="384896" size="512" />
			<output>
				<port id="0" precision="FP32">
					<dim>1</dim>
					<dim>128</dim>
					<dim>1</dim>
					<dim>1</dim>
				</port>
			</output>
		</layer>
		<layer id="64" name="aten::conv2d/Add_11" type="Add" version="opset1">
			<data auto_broadcast="numpy" />
			<input>
				<port id="0" precision="FP32">
					<dim>1</dim>
					<dim>128</dim>
					<dim>10</dim>
					<dim>19</dim>
				</port>
				<port id="1" precision="FP32">
					<dim>1</dim>
					<dim>128</dim>
					<dim>1</dim>
					<dim>1</dim>
				</port>
			</input>
			<output>
				<port id="2" precision="FP32" names="94_1">
					<dim>1</dim>
					<dim>128</dim>
					<dim>10</dim>
					<dim>19</dim>
				</port>
			</output>
		</layer>
		<layer id="65" name="aten::relu_/Relu_11" type="ReLU" version="opset1">
			<input>
				<port id="0" precision="FP32">
					<dim>1</dim>
					<dim>128</dim>
					<dim>10</dim>
					<dim>19</dim>
				</port>
			</input>
			<output>
				<port id="1" precision="FP32" names="94">
					<dim>1</dim>
					<dim>128</dim>
					<dim>10</dim>
					<dim>19</dim>
				</port>
			</output>
		</layer>
		<layer id="66" name="Constant_68" type="Const" version="opset1">
			<data element_type="f32" shape="128, 32, 3, 3" offset="385408" size="147456" />
			<output>
				<port id="0" precision="FP32" names="39,self.features.7.expand3x3.weight">
					<dim>128</dim>
					<dim>32</dim>
					<dim>3</dim>
					<dim>3</dim>
				</port>
			</output>
		</layer>
		<layer id="67" name="aten::conv2d/Convolution_12" type="Convolution" version="opset1">
			<data strides="1, 1" dilations="1, 1" pads_begin="1, 1" pads_end="1, 1" auto_pad="explicit" />
			<input>
				<port id="0" precision="FP32">
					<dim>1</dim>
					<dim>32</dim>
					<dim>10</dim>
					<dim>19</dim>
				</port>
				<port id="1" precision="FP32">
					<dim>128</dim>
					<dim>32</dim>
					<dim>3</dim>
					<dim>3</dim>
				</port>
			</input>
			<output>
				<port id="2" precision="FP32">
					<dim>1</dim>
					<dim>128</dim>
					<dim>10</dim>
					<dim>19</dim>
				</port>
			</output>
		</layer>
		<layer id="68" name="aten::conv2d/Reshape_12" type="Const" version="opset1">
			<data element_type="f32" shape="1, 128, 1, 1" offset="532864" size="512" />
			<output>
				<port id="0" precision="FP32">
					<dim>1</dim>
					<dim>128</dim>
					<dim>1</dim>
					<dim>1</dim>
				</port>
			</output>
		</layer>
		<layer id="69" name="aten::conv2d/Add_12" type="Add" version="opset1">
			<data auto_broadcast="numpy" />
			<input>
				<port id="0" precision="FP32">
					<dim>1</dim>
					<dim>128</dim>
					<dim>10</dim>
					<dim>19</dim>
				</port>
				<port id="1" precision="FP32">
					<dim>1</dim>
					<dim>128</dim>
					<dim>1</dim>
					<dim>1</dim>
				</port>
			</input>
			<output>
				<port id="2" precision="FP32" names="96_1">
					<dim>1</dim>
					<dim>128</dim>
					<dim>10</dim>
					<dim>19</dim>
				</port>
			</output>
		</layer>
		<layer id="70" name="aten::relu_/Relu_12" type="ReLU" version="opset1">
			<input>
				<port id="0" precision="FP32">
					<dim>1</dim>
					<dim>128</dim>
					<dim>10</dim>
					<dim>19</dim>
				</port>
			</input>
			<output>
				<port id="1" precision="FP32" names="96">
					<dim>1</dim>
					<dim>128</dim>
					<dim>10</dim>
					<dim>19</dim>
				</port>
			</output>
		</layer>
		<layer id="71" name="aten::cat/Concat_3" type="Concat" version="opset1">
			<data axis="1" />
			<input>
				<port id="0" precision="FP32">
					<dim>1</dim>
					<dim>128</dim>
					<dim>10</dim>
					<dim>19</dim>
				</port>
				<port id="1" precision="FP32">
					<dim>1</dim>
					<dim>128</dim>
					<dim>10</dim>
					<dim>19</dim>
				</port>
			</input>
			<output>
				<port id="2" precision="FP32" names="99,input.33">
					<dim>1</dim>
					<dim>256</dim>
					<dim>10</dim>
					<dim>19</dim>
				</port>
			</output>
		</layer>
		<layer id="72" name="Constant_64" type="Const" version="opset1">
			<data element_type="f32" shape="48, 256, 1, 1" offset="533376" size="49152" />
			<output>
				<port id="0" precision="FP32" names="37,self.features.8.squeeze.weight">
					<dim>48</dim>
					<dim>256</dim>
					<dim>1</dim>
					<dim>1</dim>
				</port>
			</output>
		</layer>
		<layer id="73" name="aten::conv2d/Convolution_13" type="Convolution" version="opset1">
			<data strides="1, 1" dilations="1, 1" pads_begin="0, 0" pads_end="0, 0" auto_pad="explicit" />
			<input>
				<port id="0" precision="FP32">
					<dim>1</dim>
					<dim>256</dim>
					<dim>10</dim>
					<dim>19</dim>
				</port>
				<port id="1" precision="FP32">
					<dim>48</dim>
					<dim>256</dim>
					<dim>1</dim>
					<dim>1</dim>
				</port>
			</input>
			<output>
				<port id="2" precision="FP32">
					<dim>1</dim>
					<dim>48</dim>
					<dim>10</dim>
					<dim>19</dim>
				</port>
			</output>
		</layer>
		<layer id="74" name="aten::conv2d/Reshape_13" type="Const" version="opset1">
			<data element_type="f32" shape="1, 48, 1, 1" offset="582528" size="192" />
			<output>
				<port id="0" precision="FP32">
					<dim>1</dim>
					<dim>48</dim>
					<dim>1</dim>
					<dim>1</dim>
				</port>
			</output>
		</layer>
		<layer id="75" name="aten::conv2d/Add_13" type="Add" version="opset1">
			<data auto_broadcast="numpy" />
			<input>
				<port id="0" precision="FP32">
					<dim>1</dim>
					<dim>48</dim>
					<dim>10</dim>
					<dim>19</dim>
				</port>
				<port id="1" precision="FP32">
					<dim>1</dim>
					<dim>48</dim>
					<dim>1</dim>
					<dim>1</dim>
				</port>
			</input>
			<output>
				<port id="2" precision="FP32" names="100_1">
					<dim>1</dim>
					<dim>48</dim>
					<dim>10</dim>
					<dim>19</dim>
				</port>
			</output>
		</layer>
		<layer id="76" name="aten::relu_/Relu_13" type="ReLU" version="opset1">
			<input>
				<port id="0" precision="FP32">
					<dim>1</dim>
					<dim>48</dim>
					<dim>10</dim>
					<dim>19</dim>
				</port>
			</input>
			<output>
				<port id="1" precision="FP32" names="100">
					<dim>1</dim>
					<dim>48</dim>
					<dim>10</dim>
					<dim>19</dim>
				</port>
			</output>
		</layer>
		<layer id="77" name="Constant_60" type="Const" version="opset1">
			<data element_type="f32" shape="192, 48, 1, 1" offset="582720" size="36864" />
			<output>
				<port id="0" precision="FP32" names="35,self.features.8.expand1x1.weight">
					<dim>192</dim>
					<dim>48</dim>
					<dim>1</dim>
					<dim>1</dim>
				</port>
			</output>
		</layer>
		<layer id="78" name="aten::conv2d/Convolution_14" type="Convolution" version="opset1">
			<data strides="1, 1" dilations="1, 1" pads_begin="0, 0" pads_end="0, 0" auto_pad="explicit" />
			<input>
				<port id="0" precision="FP32">
					<dim>1</dim>
					<dim>48</dim>
					<dim>10</dim>
					<dim>19</dim>
				</port>
				<port id="1" precision="FP32">
					<dim>192</dim>
					<dim>48</dim>
					<dim>1</dim>
					<dim>1</dim>
				</port>
			</input>
			<output>
				<port id="2" precision="FP32">
					<dim>1</dim>
					<dim>192</dim>
					<dim>10</dim>
					<dim>19</dim>
				</port>
			</output>
		</layer>
		<layer id="79" name="aten::conv2d/Reshape_14" type="Const" version="opset1">
			<data element_type="f32" shape="1, 192, 1, 1" offset="619584" size="768" />
			<output>
				<port id="0" precision="FP32">
					<dim>1</dim>
					<dim>192</dim>
					<dim>1</dim>
					<dim>1</dim>
				</port>
			</output>
		</layer>
		<layer id="80" name="aten::conv2d/Add_14" type="Add" version="opset1">
			<data auto_broadcast="numpy" />
			<input>
				<port id="0" precision="FP32">
					<dim>1</dim>
					<dim>192</dim>
					<dim>10</dim>
					<dim>19</dim>
				</port>
				<port id="1" precision="FP32">
					<dim>1</dim>
					<dim>192</dim>
					<dim>1</dim>
					<dim>1</dim>
				</port>
			</input>
			<output>
				<port id="2" precision="FP32" names="102_1">
					<dim>1</dim>
					<dim>192</dim>
					<dim>10</dim>
					<dim>19</dim>
				</port>
			</output>
		</layer>
		<layer id="81" name="aten::relu_/Relu_14" type="ReLU" version="opset1">
			<input>
				<port id="0" precision="FP32">
					<dim>1</dim>
					<dim>192</dim>
					<dim>10</dim>
					<dim>19</dim>
				</port>
			</input>
			<output>
				<port id="1" precision="FP32" names="102">
					<dim>1</dim>
					<dim>192</dim>
					<dim>10</dim>
					<dim>19</dim>
				</port>
			</output>
		</layer>
		<layer id="82" name="Constant_56" type="Const" version="opset1">
			<data element_type="f32" shape="192, 48, 3, 3" offset="620352" size="331776" />
			<output>
				<port id="0" precision="FP32" names="33,self.features.8.expand3x3.weight">
					<dim>192</dim>
					<dim>48</dim>
					<dim>3</dim>
					<dim>3</dim>
				</port>
			</output>
		</layer>
		<layer id="83" name="aten::conv2d/Convolution_15" type="Convolution" version="opset1">
			<data strides="1, 1" dilations="1, 1" pads_begin="1, 1" pads_end="1, 1" auto_pad="explicit" />
			<input>
				<port id="0" precision="FP32">
					<dim>1</dim>
					<dim>48</dim>
					<dim>10</dim>
					<dim>19</dim>
				</port>
				<port id="1" precision="FP32">
					<dim>192</dim>
					<dim>48</dim>
					<dim>3</dim>
					<dim>3</dim>
				</port>
			</input>
			<output>
				<port id="2" precision="FP32">
					<dim>1</dim>
					<dim>192</dim>
					<dim>10</dim>
					<dim>19</dim>
				</port>
			</output>
		</layer>
		<layer id="84" name="aten::conv2d/Reshape_15" type="Const" version="opset1">
			<data element_type="f32" shape="1, 192, 1, 1" offset="952128" size="768" />
			<output>
				<port id="0" precision="FP32">
					<dim>1</dim>
					<dim>192</dim>
					<dim>1</dim>
					<dim>1</dim>
				</port>
			</output>
		</layer>
		<layer id="85" name="aten::conv2d/Add_15" type="Add" version="opset1">
			<data auto_broadcast="numpy" />
			<input>
				<port id="0" precision="FP32">
					<dim>1</dim>
					<dim>192</dim>
					<dim>10</dim>
					<dim>19</dim>
				</port>
				<port id="1" precision="FP32">
					<dim>1</dim>
					<dim>192</dim>
					<dim>1</dim>
					<dim>1</dim>
				</port>
			</input>
			<output>
				<port id="2" precision="FP32" names="104_1">
					<dim>1</dim>
					<dim>192</dim>
					<dim>10</dim>
					<dim>19</dim>
				</port>
			</output>
		</layer>
		<layer id="86" name="aten::relu_/Relu_15" type="ReLU" version="opset1">
			<input>
				<port id="0" precision="FP32">
					<dim>1</dim>
					<dim>192</dim>
					<dim>10</dim>
					<dim>19</dim>
				</port>
			</input>
			<output>
				<port id="1" precision="FP32" names="104">
					<dim>1</dim>
					<dim>192</dim>
					<dim>10</dim>
					<dim>19</dim>
				</port>
			</output>
		</layer>
		<layer id="87" name="aten::cat/Concat_4" type="Concat" version="opset1">
			<data axis="1" />
			<input>
				<port id="0" precision="FP32">
					<dim>1</dim>
					<dim>192</dim>
					<dim>10</dim>
					<dim>19</dim>
				</port>
				<port id="1" precision="FP32">
					<dim>1</dim>
					<dim>192</dim>
					<dim>10</dim>
					<dim>19</dim>
				</port>
			</input>
			<output>
				<port id="2" precision="FP32" names="107,input.37">
					<dim>1</dim>
					<dim>384</dim>
					<dim>10</dim>
					<dim>19</dim>
				</port>
			</output>
		</layer>
		<layer id="88" name="Constant_52" type="Const" version="opset1">
			<data element_type="f32" shape="48, 384, 1, 1" offset="952896" size="73728" />
			<output>
				<port id="0" precision="FP32" names="31,self.features.9.squeeze.weight">
					<dim>48</dim>
					<dim>384</dim>
					<dim>1</dim>
					<dim>1</dim>
				</port>
			</output>
		</layer>
		<layer id="89" name="aten::conv2d/Convolution_16" type="Convolution" version="opset1">
			<data strides="1, 1" dilations="1, 1" pads_begin="0, 0" pads_end="0, 0" auto_pad="explicit" />
			<input>
				<port id="0" precision="FP32">
					<dim>1</dim>
					<dim>384</dim>
					<dim>10</dim>
					<dim>19</dim>
				</port>
				<port id="1" precision="FP32">
					<dim>48</dim>
					<dim>384</dim>
					<dim>1</dim>
					<dim>1</dim>
				</port>
			</input>
			<output>
				<port id="2" precision="FP32">
					<dim>1</dim>
					<dim>48</dim>
					<dim>10</dim>
					<dim>19</dim>
				</port>
			</output>
		</layer>
		<layer id="90" name="aten::conv2d/Reshape_16" type="Const" version="opset1">
			<data element_type="f32" shape="1, 48, 1, 1" offset="1026624" size="192" />
			<output>
				<port id="0" precision="FP32">
					<dim>1</dim>
					<dim>48</dim>
					<dim>1</dim>
					<dim>1</dim>
				</port>
			</output>
		</layer>
		<layer id="91" name="aten::conv2d/Add_16" type="Add" version="opset1">
			<data auto_broadcast="numpy" />
			<input>
				<port id="0" precision="FP32">
					<dim>1</dim>
					<dim>48</dim>
					<dim>10</dim>
					<dim>19</dim>
				</port>
				<port id="1" precision="FP32">
					<dim>1</dim>
					<dim>48</dim>
					<dim>1</dim>
					<dim>1</dim>
				</port>
			</input>
			<output>
				<port id="2" precision="FP32" names="108_1">
					<dim>1</dim>
					<dim>48</dim>
					<dim>10</dim>
					<dim>19</dim>
				</port>
			</output>
		</layer>
		<layer id="92" name="aten::relu_/Relu_16" type="ReLU" version="opset1">
			<input>
				<port id="0" precision="FP32">
					<dim>1</dim>
					<dim>48</dim>
					<dim>10</dim>
					<dim>19</dim>
				</port>
			</input>
			<output>
				<port id="1" precision="FP32" names="108">
					<dim>1</dim>
					<dim>48</dim>
					<dim>10</dim>
					<dim>19</dim>
				</port>
			</output>
		</layer>
		<layer id="93" name="Constant_48" type="Const" version="opset1">
			<data element_type="f32" shape="192, 48, 1, 1" offset="1026816" size="36864" />
			<output>
				<port id="0" precision="FP32" names="29,self.features.9.expand1x1.weight">
					<dim>192</dim>
					<dim>48</dim>
					<dim>1</dim>
					<dim>1</dim>
				</port>
			</output>
		</layer>
		<layer id="94" name="aten::conv2d/Convolution_17" type="Convolution" version="opset1">
			<data strides="1, 1" dilations="1, 1" pads_begin="0, 0" pads_end="0, 0" auto_pad="explicit" />
			<input>
				<port id="0" precision="FP32">
					<dim>1</dim>
					<dim>48</dim>
					<dim>10</dim>
					<dim>19</dim>
				</port>
				<port id="1" precision="FP32">
					<dim>192</dim>
					<dim>48</dim>
					<dim>1</dim>
					<dim>1</dim>
				</port>
			</input>
			<output>
				<port id="2" precision="FP32">
					<dim>1</dim>
					<dim>192</dim>
					<dim>10</dim>
					<dim>19</dim>
				</port>
			</output>
		</layer>
		<layer id="95" name="aten::conv2d/Reshape_17" type="Const" version="opset1">
			<data element_type="f32" shape="1, 192, 1, 1" offset="1063680" size="768" />
			<output>
				<port id="0" precision="FP32">
					<dim>1</dim>
					<dim>192</dim>
					<dim>1</dim>
					<dim>1</dim>
				</port>
			</output>
		</layer>
		<layer id="96" name="aten::conv2d/Add_17" type="Add" version="opset1">
			<data auto_broadcast="numpy" />
			<input>
				<port id="0" precision="FP32">
					<dim>1</dim>
					<dim>192</dim>
					<dim>10</dim>
					<dim>19</dim>
				</port>
				<port id="1" precision="FP32">
					<dim>1</dim>
					<dim>192</dim>
					<dim>1</dim>
					<dim>1</dim>
				</port>
			</input>
			<output>
				<port id="2" precision="FP32" names="110_1">
					<dim>1</dim>
					<dim>192</dim>
					<dim>10</dim>
					<dim>19</dim>
				</port>
			</output>
		</layer>
		<layer id="97" name="aten::relu_/Relu_17" type="ReLU" version="opset1">
			<input>
				<port id="0" precision="FP32">
					<dim>1</dim>
					<dim>192</dim>
					<dim>10</dim>
					<dim>19</dim>
				</port>
			</input>
			<output>
				<port id="1" precision="FP32" names="110">
					<dim>1</dim>
					<dim>192</dim>
					<dim>10</dim>
					<dim>19</dim>
				</port>
			</output>
		</layer>
		<layer id="98" name="Constant_44" type="Const" version="opset1">
			<data element_type="f32" shape="192, 48, 3, 3" offset="1064448" size="331776" />
			<output>
				<port id="0" precision="FP32" names="27,self.features.9.expand3x3.weight">
					<dim>192</dim>
					<dim>48</dim>
					<dim>3</dim>
					<dim>3</dim>
				</port>
			</output>
		</layer>
		<layer id="99" name="aten::conv2d/Convolution_18" type="Convolution" version="opset1">
			<data strides="1, 1" dilations="1, 1" pads_begin="1, 1" pads_end="1, 1" auto_pad="explicit" />
			<input>
				<port id="0" precision="FP32">
					<dim>1</dim>
					<dim>48</dim>
					<dim>10</dim>
					<dim>19</dim>
				</port>
				<port id="1" precision="FP32">
					<dim>192</dim>
					<dim>48</dim>
					<dim>3</dim>
					<dim>3</dim>
				</port>
			</input>
			<output>
				<port id="2" precision="FP32">
					<dim>1</dim>
					<dim>192</dim>
					<dim>10</dim>
					<dim>19</dim>
				</port>
			</output>
		</layer>
		<layer id="100" name="aten::conv2d/Reshape_18" type="Const" version="opset1">
			<data element_type="f32" shape="1, 192, 1, 1" offset="1396224" size="768" />
			<output>
				<port id="0" precision="FP32">
					<dim>1</dim>
					<dim>192</dim>
					<dim>1</dim>
					<dim>1</dim>
				</port>
			</output>
		</layer>
		<layer id="101" name="aten::conv2d/Add_18" type="Add" version="opset1">
			<data auto_broadcast="numpy" />
			<input>
				<port id="0" precision="FP32">
					<dim>1</dim>
					<dim>192</dim>
					<dim>10</dim>
					<dim>19</dim>
				</port>
				<port id="1" precision="FP32">
					<dim>1</dim>
					<dim>192</dim>
					<dim>1</dim>
					<dim>1</dim>
				</port>
			</input>
			<output>
				<port id="2" precision="FP32" names="112_1">
					<dim>1</dim>
					<dim>192</dim>
					<dim>10</dim>
					<dim>19</dim>
				</port>
			</output>
		</layer>
		<layer id="102" name="aten::relu_/Relu_18" type="ReLU" version="opset1">
			<input>
				<port id="0" precision="FP32">
					<dim>1</dim>
					<dim>192</dim>
					<dim>10</dim>
					<dim>19</dim>
				</port>
			</input>
			<output>
				<port id="1" precision="FP32" names="112">
					<dim>1</dim>
					<dim>192</dim>
					<dim>10</dim>
					<dim>19</dim>
				</port>
			</output>
		</layer>
		<layer id="103" name="aten::cat/Concat_5" type="Concat" version="opset1">
			<data axis="1" />
			<input>
				<port id="0" precision="FP32">
					<dim>1</dim>
					<dim>192</dim>
					<dim>10</dim>
					<dim>19</dim>
				</port>
				<port id="1" precision="FP32">
					<dim>1</dim>
					<dim>192</dim>
					<dim>10</dim>
					<dim>19</dim>
				</port>
			</input>
			<output>
				<port id="2" precision="FP32" names="115,input.41">
					<dim>1</dim>
					<dim>384</dim>
					<dim>10</dim>
					<dim>19</dim>
				</port>
			</output>
		</layer>
		<layer id="104" name="Constant_40" type="Const" version="opset1">
			<data element_type="f32" shape="64, 384, 1, 1" offset="1396992" size="98304" />
			<output>
				<port id="0" precision="FP32" names="25,self.features.10.squeeze.weight">
					<dim>64</dim>
					<dim>384</dim>
					<dim>1</dim>
					<dim>1</dim>
				</port>
			</output>
		</layer>
		<layer id="105" name="aten::conv2d/Convolution_19" type="Convolution" version="opset1">
			<data strides="1, 1" dilations="1, 1" pads_begin="0, 0" pads_end="0, 0" auto_pad="explicit" />
			<input>
				<port id="0" precision="FP32">
					<dim>1</dim>
					<dim>384</dim>
					<dim>10</dim>
					<dim>19</dim>
				</port>
				<port id="1" precision="FP32">
					<dim>64</dim>
					<dim>384</dim>
					<dim>1</dim>
					<dim>1</dim>
				</port>
			</input>
			<output>
				<port id="2" precision="FP32">
					<dim>1</dim>
					<dim>64</dim>
					<dim>10</dim>
					<dim>19</dim>
				</port>
			</output>
		</layer>
		<layer id="106" name="aten::conv2d/Reshape_19" type="Const" version="opset1">
			<data element_type="f32" shape="1, 64, 1, 1" offset="1495296" size="256" />
			<output>
				<port id="0" precision="FP32">
					<dim>1</dim>
					<dim>64</dim>
					<dim>1</dim>
					<dim>1</dim>
				</port>
			</output>
		</layer>
		<layer id="107" name="aten::conv2d/Add_19" type="Add" version="opset1">
			<data auto_broadcast="numpy" />
			<input>
				<port id="0" precision="FP32">
					<dim>1</dim>
					<dim>64</dim>
					<dim>10</dim>
					<dim>19</dim>
				</port>
				<port id="1" precision="FP32">
					<dim>1</dim>
					<dim>64</dim>
					<dim>1</dim>
					<dim>1</dim>
				</port>
			</input>
			<output>
				<port id="2" precision="FP32" names="116_1">
					<dim>1</dim>
					<dim>64</dim>
					<dim>10</dim>
					<dim>19</dim>
				</port>
			</output>
		</layer>
		<layer id="108" name="aten::relu_/Relu_19" type="ReLU" version="opset1">
			<input>
				<port id="0" precision="FP32">
					<dim>1</dim>
					<dim>64</dim>
					<dim>10</dim>
					<dim>19</dim>
				</port>
			</input>
			<output>
				<port id="1" precision="FP32" names="116">
					<dim>1</dim>
					<dim>64</dim>
					<dim>10</dim>
					<dim>19</dim>
				</port>
			</output>
		</layer>
		<layer id="109" name="Constant_36" type="Const" version="opset1">
			<data element_type="f32" shape="256, 64, 1, 1" offset="1495552" size="65536" />
			<output>
				<port id="0" precision="FP32" names="23,self.features.10.expand1x1.weight">
					<dim>256</dim>
					<dim>64</dim>
					<dim>1</dim>
					<dim>1</dim>
				</port>
			</output>
		</layer>
		<layer id="110" name="aten::conv2d/Convolution_20" type="Convolution" version="opset1">
			<data strides="1, 1" dilations="1, 1" pads_begin="0, 0" pads_end="0, 0" auto_pad="explicit" />
			<input>
				<port id="0" precision="FP32">
					<dim>1</dim>
					<dim>64</dim>
					<dim>10</dim>
					<dim>19</dim>
				</port>
				<port id="1" precision="FP32">
					<dim>256</dim>
					<dim>64</dim>
					<dim>1</dim>
					<dim>1</dim>
				</port>
			</input>
			<output>
				<port id="2" precision="FP32">
					<dim>1</dim>
					<dim>256</dim>
					<dim>10</dim>
					<dim>19</dim>
				</port>
			</output>
		</layer>
		<layer id="111" name="aten::conv2d/Reshape_20" type="Const" version="opset1">
			<data element_type="f32" shape="1, 256, 1, 1" offset="1561088" size="1024" />
			<output>
				<port id="0" precision="FP32">
					<dim>1</dim>
					<dim>256</dim>
					<dim>1</dim>
					<dim>1</dim>
				</port>
			</output>
		</layer>
		<layer id="112" name="aten::conv2d/Add_20" type="Add" version="opset1">
			<data auto_broadcast="numpy" />
			<input>
				<port id="0" precision="FP32">
					<dim>1</dim>
					<dim>256</dim>
					<dim>10</dim>
					<dim>19</dim>
				</port>
				<port id="1" precision="FP32">
					<dim>1</dim>
					<dim>256</dim>
					<dim>1</dim>
					<dim>1</dim>
				</port>
			</input>
			<output>
				<port id="2" precision="FP32" names="118_1">
					<dim>1</dim>
					<dim>256</dim>
					<dim>10</dim>
					<dim>19</dim>
				</port>
			</output>
		</layer>
		<layer id="113" name="aten::relu_/Relu_20" type="ReLU" version="opset1">
			<input>
				<port id="0" precision="FP32">
					<dim>1</dim>
					<dim>256</dim>
					<dim>10</dim>
					<dim>19</dim>
				</port>
			</input>
			<output>
				<port id="1" precision="FP32" names="118">
					<dim>1</dim>
					<dim>256</dim>
					<dim>10</dim>
					<dim>19</dim>
				</port>
			</output>
		</layer>
		<layer id="114" name="Constant_32" type="Const" version="opset1">
			<data element_type="f32" shape="256, 64, 3, 3" offset="1562112" size="589824" />
			<output>
				<port id="0" precision="FP32" names="21,self.features.10.expand3x3.weight">
					<dim>256</dim>
					<dim>64</dim>
					<dim>3</dim>
					<dim>3</dim>
				</port>
			</output>
		</layer>
		<layer id="115" name="aten::conv2d/Convolution_21" type="Convolution" version="opset1">
			<data strides="1, 1" dilations="1, 1" pads_begin="1, 1" pads_end="1, 1" auto_pad="explicit" />
			<input>
				<port id="0" precision="FP32">
					<dim>1</dim>
					<dim>64</dim>
					<dim>10</dim>
					<dim>19</dim>
				</port>
				<port id="1" precision="FP32">
					<dim>256</dim>
					<dim>64</dim>
					<dim>3</dim>
					<dim>3</dim>
				</port>
			</input>
			<output>
				<port id="2" precision="FP32">
					<dim>1</dim>
					<dim>256</dim>
					<dim>10</dim>
					<dim>19</dim>
				</port>
			</output>
		</layer>
		<layer id="116" name="aten::conv2d/Reshape_21" type="Const" version="opset1">
			<data element_type="f32" shape="1, 256, 1, 1" offset="2151936" size="1024" />
			<output>
				<port id="0" precision="FP32">
					<dim>1</dim>
					<dim>256</dim>
					<dim>1</dim>
					<dim>1</dim>
				</port>
			</output>
		</layer>
		<layer id="117" name="aten::conv2d/Add_21" type="Add" version="opset1">
			<data auto_broadcast="numpy" />
			<input>
				<port id="0" precision="FP32">
					<dim>1</dim>
					<dim>256</dim>
					<dim>10</dim>
					<dim>19</dim>
				</port>
				<port id="1" precision="FP32">
					<dim>1</dim>
					<dim>256</dim>
					<dim>1</dim>
					<dim>1</dim>
				</port>
			</input>
			<output>
				<port id="2" precision="FP32" names="120_1">
					<dim>1</dim>
					<dim>256</dim>
					<dim>10</dim>
					<dim>19</dim>
				</port>
			</output>
		</layer>
		<layer id="118" name="aten::relu_/Relu_21" type="ReLU" version="opset1">
			<input>
				<port id="0" precision="FP32">
					<dim>1</dim>
					<dim>256</dim>
					<dim>10</dim>
					<dim>19</dim>
				</port>
			</input>
			<output>
				<port id="1" precision="FP32" names="120">
					<dim>1</dim>
					<dim>256</dim>
					<dim>10</dim>
					<dim>19</dim>
				</port>
			</output>
		</layer>
		<layer id="119" name="aten::cat/Concat_6" type="Concat" version="opset1">
			<data axis="1" />
			<input>
				<port id="0" precision="FP32">
					<dim>1</dim>
					<dim>256</dim>
					<dim>10</dim>
					<dim>19</dim>
				</port>
				<port id="1" precision="FP32">
					<dim>1</dim>
					<dim>256</dim>
					<dim>10</dim>
					<dim>19</dim>
				</port>
			</input>
			<output>
				<port id="2" precision="FP32" names="123,input.45">
					<dim>1</dim>
					<dim>512</dim>
					<dim>10</dim>
					<dim>19</dim>
				</port>
			</output>
		</layer>
		<layer id="120" name="aten::max_pool2d/MaxPool_2" type="MaxPool" version="opset14">
			<data strides="2, 2" dilations="1, 1" pads_begin="0, 0" pads_end="0, 0" kernel="3, 3" rounding_type="ceil_torch" auto_pad="explicit" index_element_type="i64" axis="2" />
			<input>
				<port id="0" precision="FP32">
					<dim>1</dim>
					<dim>512</dim>
					<dim>10</dim>
					<dim>19</dim>
				</port>
			</input>
			<output>
				<port id="1" precision="FP32" names="124,input.49">
					<dim>1</dim>
					<dim>512</dim>
					<dim>5</dim>
					<dim>9</dim>
				</port>
				<port id="2" precision="I64">
					<dim>1</dim>
					<dim>512</dim>
					<dim>5</dim>
					<dim>9</dim>
				</port>
			</output>
		</layer>
		<layer id="121" name="Constant_28" type="Const" version="opset1">
			<data element_type="f32" shape="64, 512, 1, 1" offset="2152960" size="131072" />
			<output>
				<port id="0" precision="FP32" names="19,self.features.12.squeeze.weight">
					<dim>64</dim>
					<dim>512</dim>
					<dim>1</dim>
					<dim>1</dim>
				</port>
			</output>
		</layer>
		<layer id="122" name="aten::conv2d/Convolution_22" type="Convolution" version="opset1">
			<data strides="1, 1" dilations="1, 1" pads_begin="0, 0" pads_end="0, 0" auto_pad="explicit" />
			<input>
				<port id="0" precision="FP32">
					<dim>1</dim>
					<dim>512</dim>
					<dim>5</dim>
					<dim>9</dim>
				</port>
				<port id="1" precision="FP32">
					<dim>64</dim>
					<dim>512</dim>
					<dim>1</dim>
					<dim>1</dim>
				</port>
			</input>
			<output>
				<port id="2" precision="FP32">
					<dim>1</dim>
					<dim>64</dim>
					<dim>5</dim>
					<dim>9</dim>
				</port>
			</output>
		</layer>
		<layer id="123" name="aten::conv2d/Reshape_22" type="Const" version="opset1">
			<data element_type="f32" shape="1, 64, 1, 1" offset="2284032" size="256" />
			<output>
				<port id="0" precision="FP32">
					<dim>1</dim>
					<dim>64</dim>
					<dim>1</dim>
					<dim>1</dim>
				</port>
			</output>
		</layer>
		<layer id="124" name="aten::conv2d/Add_22" type="Add" version="opset1">
			<data auto_broadcast="numpy" />
			<input>
				<port id="0" precision="FP32">
					<dim>1</dim>
					<dim>64</dim>
					<dim>5</dim>
					<dim>9</dim>
				</port>
				<port id="1" precision="FP32">
					<dim>1</dim>
					<dim>64</dim>
					<dim>1</dim>
					<dim>1</dim>
				</port>
			</input>
			<output>
				<port id="2" precision="FP32" names="125_1">
					<dim>1</dim>
					<dim>64</dim>
					<dim>5</dim>
					<dim>9</dim>
				</port>
			</output>
		</layer>
		<layer id="125" name="aten::relu_/Relu_22" type="ReLU" version="opset1">
			<input>
				<port id="0" precision="FP32">
					<dim>1</dim>
					<dim>64</dim>
					<dim>5</dim>
					<dim>9</dim>
				</port>
			</input>
			<output>
				<port id="1" precision="FP32" names="125">
					<dim>1</dim>
					<dim>64</dim>
					<dim>5</dim>
					<dim>9</dim>
				</port>
			</output>
		</layer>
		<layer id="126" name="Constant_24" type="Const" version="opset1">
			<data element_type="f32" shape="256, 64, 1, 1" offset="2284288" size="65536" />
			<output>
				<port id="0" precision="FP32" names="17,self.features.12.expand1x1.weight">
					<dim>256</dim>
					<dim>64</dim>
					<dim>1</dim>
					<dim>1</dim>
				</port>
			</output>
		</layer>
		<layer id="127" name="aten::conv2d/Convolution_23" type="Convolution" version="opset1">
			<data strides="1, 1" dilations="1, 1" pads_begin="0, 0" pads_end="0, 0" auto_pad="explicit" />
			<input>
				<port id="0" precision="FP32">
					<dim>1</dim>
					<dim>64</dim>
					<dim>5</dim>
					<dim>9</dim>
				</port>
				<port id="1" precision="FP32">
					<dim>256</dim>
					<dim>64</dim>
					<dim>1</dim>
					<dim>1</dim>
				</port>
			</input>
			<output>
				<port id="2" precision="FP32">
					<dim>1</dim>
					<dim>256</dim>
					<dim>5</dim>
					<dim>9</dim>
				</port>
			</output>
		</layer>
		<layer id="128" name="aten::conv2d/Reshape_23" type="Const" version="opset1">
			<data element_type="f32" shape="1, 256, 1, 1" offset="2349824" size="1024" />
			<output>
				<port id="0" precision="FP32">
					<dim>1</dim>
					<dim>256</dim>
					<dim>1</dim>
					<dim>1</dim>
				</port>
			</output>
		</layer>
		<layer id="129" name="aten::conv2d/Add_23" type="Add" version="opset1">
			<data auto_broadcast="numpy" />
			<input>
				<port id="0" precision="FP32">
					<dim>1</dim>
					<dim>256</dim>
					<dim>5</dim>
					<dim>9</dim>
				</port>
				<port id="1" precision="FP32">
					<dim>1</dim>
					<dim>256</dim>
					<dim>1</dim>
					<dim>1</dim>
				</port>
			</input>
			<output>
				<port id="2" precision="FP32" names="127_1">
					<dim>1</dim>
					<dim>256</dim>
					<dim>5</dim>
					<dim>9</dim>
				</port>
			</output>
		</layer>
		<layer id="130" name="aten::relu_/Relu_23" type="ReLU" version="opset1">
			<input>
				<port id="0" precision="FP32">
					<dim>1</dim>
					<dim>256</dim>
					<dim>5</dim>
					<dim>9</dim>
				</port>
			</input>
			<output>
				<port id="1" precision="FP32" names="127">
					<dim>1</dim>
					<dim>256</dim>
					<dim>5</dim>
					<dim>9</dim>
				</port>
			</output>
		</layer>
		<layer id="131" name="Constant_20" type="Const" version="opset1">
			<data element_type="f32" shape="256, 64, 3, 3" offset="2350848" size="589824" />
			<output>
				<port id="0" precision="FP32" names="15,self.features.12.expand3x3.weight">
					<dim>256</dim>
					<dim>64</dim>
					<dim>3</dim>
					<dim>3</dim>
				</port>
			</output>
		</layer>
		<layer id="132" name="aten::conv2d/Convolution_24" type="Convolution" version="opset1">
			<data strides="1, 1" dilations="1, 1" pads_begin="1, 1" pads_end="1, 1" auto_pad="explicit" />
			<input>
				<port id="0" precision="FP32">
					<dim>1</dim>
					<dim>64</dim>
					<dim>5</dim>
					<dim>9</dim>
				</port>
				<port id="1" precision="FP32">
					<dim>256</dim>
					<dim>64</dim>
					<dim>3</dim>
					<dim>3</dim>
				</port>
			</input>
			<output>
				<port id="2" precision="FP32">
					<dim>1</dim>
					<dim>256</dim>
					<dim>5</dim>
					<dim>9</dim>
				</port>
			</output>
		</layer>
		<layer id="133" name="aten::conv2d/Reshape_24" type="Const" version="opset1">
			<data element_type="f32" shape="1, 256, 1, 1" offset="2940672" size="1024" />
			<output>
				<port id="0" precision="FP32">
					<dim>1</dim>
					<dim>256</dim>
					<dim>1</dim>
					<dim>1</dim>
				</port>
			</output>
		</layer>
		<layer id="134" name="aten::conv2d/Add_24" type="Add" version="opset1">
			<data auto_broadcast="numpy" />
			<input>
				<port id="0" precision="FP32">
					<dim>1</dim>
					<dim>256</dim>
					<dim>5</dim>
					<dim>9</dim>
				</port>
				<port id="1" precision="FP32">
					<dim>1</dim>
					<dim>256</dim>
					<dim>1</dim>
					<dim>1</dim>
				</port>
			</input>
			<output>
				<port id="2" precision="FP32" names="129_1">
					<dim>1</dim>
					<dim>256</dim>
					<dim>5</dim>
					<dim>9</dim>
				</port>
			</output>
		</layer>
		<layer id="135" name="aten::relu_/Relu_24" type="ReLU" version="opset1">
			<input>
				<port id="0" precision="FP32">
					<dim>1</dim>
					<dim>256</dim>
					<dim>5</dim>
					<dim>9</dim>
				</port>
			</input>
			<output>
				<port id="1" precision="FP32" names="129">
					<dim>1</dim>
					<dim>256</dim>
					<dim>5</dim>
					<dim>9</dim>
				</port>
			</output>
		</layer>
		<layer id="136" name="aten::cat/Concat_7" type="Concat" version="opset1">
			<data axis="1" />
			<input>
				<port id="0" precision="FP32">
					<dim>1</dim>
					<dim>256</dim>
					<dim>5</dim>
					<dim>9</dim>
				</port>
				<port id="1" precision="FP32">
					<dim>1</dim>
					<dim>256</dim>
					<dim>5</dim>
					<dim>9</dim>
				</port>
			</input>
			<output>
				<port id="2" precision="FP32" names="132,x.7">
					<dim>1</dim>
					<dim>512</dim>
					<dim>5</dim>
					<dim>9</dim>
				</port>
			</output>
		</layer>
		<layer id="137" name="Constant_16" type="Const" version="opset1">
			<data element_type="f32" shape="30, 512, 1, 1" offset="2941696" size="61440" />
			<output>
				<port id="0" precision="FP32" names="13,self.classifier.1.weight">
					<dim>30</dim>
					<dim>512</dim>
					<dim>1</dim>
					<dim>1</dim>
				</port>
			</output>
		</layer>
		<layer id="138" name="aten::conv2d/Convolution_25" type="Convolution" version="opset1">
			<data strides="1, 1" dilations="1, 1" pads_begin="0, 0" pads_end="0, 0" auto_pad="explicit" />
			<input>
				<port id="0" precision="FP32">
					<dim>1</dim>
					<dim>512</dim>
					<dim>5</dim>
					<dim>9</dim>
				</port>
				<port id="1" precision="FP32">
					<dim>30</dim>
					<dim>512</dim>
					<dim>1</dim>
					<dim>1</dim>
				</port>
			</input>
			<output>
				<port id="2" precision="FP32">
					<dim>1</dim>
					<dim>30</dim>
					<dim>5</dim>
					<dim>9</dim>
				</port>
			</output>
		</layer>
		<layer id="139" name="aten::conv2d/Reshape_25" type="Const" version="opset1">
			<data element_type="f32" shape="1, 30, 1, 1" offset="3003136" size="120" />
			<output>
				<port id="0" precision="FP32">
					<dim>1</dim>
					<dim>30</dim>
					<dim>1</dim>
					<dim>1</dim>
				</port>
			</output>
		</layer>
		<layer id="140" name="aten::conv2d/Add_25" type="Add" version="opset1">
			<data auto_broadcast="numpy" />
			<input>
				<port id="0" precision="FP32">
					<dim>1</dim>
					<dim>30</dim>
					<dim>5</dim>
					<dim>9</dim>
				</port>
				<port id="1" precision="FP32">
					<dim>1</dim>
					<dim>30</dim>
					<dim>1</dim>
					<dim>1</dim>
				</port>
			</input>
			<output>
				<port id="2" precision="FP32" names="133_1">
					<dim>1</dim>
					<dim>30</dim>
					<dim>5</dim>
					<dim>9</dim>
				</port>
			</output>
		</layer>
		<layer id="141" name="aten::relu_/Relu_25" type="ReLU" version="opset1">
			<input>
				<port id="0" precision="FP32">
					<dim>1</dim>
					<dim>30</dim>
					<dim>5</dim>
					<dim>9</dim>
				</port>
			</input>
			<output>
				<port id="1" precision="FP32" names="133,input.9">
					<dim>1</dim>
					<dim>30</dim>
					<dim>5</dim>
					<dim>9</dim>
				</port>
			</output>
		</layer>
		<layer id="142" name="Constant_3363" type="Const" version="opset1">
			<data element_type="i64" shape="2" offset="3003256" size="16" />
			<output>
				<port id="0" precision="I64">
					<dim>2</dim>
				</port>
			</output>
		</layer>
		<layer id="143" name="aten::adaptive_avg_pool2d/AdaptiveAvgPool" type="ReduceMean" version="opset1">
			<data keep_dims="true" />
			<input>
				<port id="0" precision="FP32">
					<dim>1</dim>
					<dim>30</dim>
					<dim>5</dim>
					<dim>9</dim>
				</port>
				<port id="1" precision="I64">
					<dim>2</dim>
				</port>
			</input>
			<output>
				<port id="2" precision="FP32" names="138,x.9">
					<dim>1</dim>
					<dim>30</dim>
					<dim>1</dim>
					<dim>1</dim>
				</port>
			</output>
		</layer>
		<layer id="144" name="Constant_3414" type="Const" version="opset1">
			<data element_type="i64" shape="2" offset="3003272" size="16" />
			<output>
				<port id="0" precision="I64">
					<dim>2</dim>
				</port>
			</output>
		</layer>
		<layer id="145" name="aten::flatten/Reshape" type="Reshape" version="opset1">
			<data special_zero="true" />
			<input>
				<port id="0" precision="FP32">
					<dim>1</dim>
					<dim>30</dim>
					<dim>1</dim>
					<dim>1</dim>
				</port>
				<port id="1" precision="I64">
					<dim>2</dim>
				</port>
			</input>
			<output>
				<port id="2" precision="FP32">
					<dim>1</dim>
					<dim>30</dim>
				</port>
			</output>
		</layer>
		<layer id="146" name="Result_786" type="Result" version="opset1">
			<input>
				<port id="0" precision="FP32">
					<dim>1</dim>
					<dim>30</dim>
				</port>
			</input>
		</layer>
	</layers>
	<edges>
		<edge from-layer="0" from-port="0" to-layer="2" to-port="0" />
		<edge from-layer="1" from-port="0" to-layer="2" to-port="1" />
		<edge from-layer="2" from-port="2" to-layer="4" to-port="0" />
		<edge from-layer="3" from-port="0" to-layer="4" to-port="1" />
		<edge from-layer="4" from-port="2" to-layer="5" to-port="0" />
		<edge from-layer="5" from-port="1" to-layer="6" to-port="0" />
		<edge from-layer="6" from-port="1" to-layer="8" to-port="0" />
		<edge from-layer="7" from-port="0" to-layer="8" to-port="1" />
		<edge from-layer="8" from-port="2" to-layer="10" to-port="0" />
		<edge from-layer="9" from-port="0" to-layer="10" to-port="1" />
		<edge from-layer="10" from-port="2" to-layer="11" to-port="0" />
		<edge from-layer="11" from-port="1" to-layer="13" to-port="0" />
		<edge from-layer="11" from-port="1" to-layer="18" to-port="0" />
		<edge from-layer="12" from-port="0" to-layer="13" to-port="1" />
		<edge from-layer="13" from-port="2" to-layer="15" to-port="0" />
		<edge from-layer="14" from-port="0" to-layer="15" to-port="1" />
		<edge from-layer="15" from-port="2" to-layer="16" to-port="0" />
		<edge from-layer="16" from-port="1" to-layer="22" to-port="0" />
		<edge from-layer="17" from-port="0" to-layer="18" to-port="1" />
		<edge from-layer="18" from-port="2" to-layer="20" to-port="0" />
		<edge from-layer="19" from-port="0" to-layer="20" to-port="1" />
		<edge from-layer="20" from-port="2" to-layer="21" to-port="0" />
		<edge from-layer="21" from-port="1" to-layer="22" to-port="1" />
		<edge from-layer="22" from-port="2" to-layer="24" to-port="0" />
		<edge from-layer="23" from-port="0" to-layer="24" to-port="1" />
		<edge from-layer="24" from-port="2" to-layer="26" to-port="0" />
		<edge from-layer="25" from-port="0" to-layer="26" to-port="1" />
		<edge from-layer="26" from-port="2" to-layer="27" to-port="0" />
		<edge from-layer="27" from-port="1" to-layer="29" to-port="0" />
		<edge from-layer="27" from-port="1" to-layer="34" to-port="0" />
		<edge from-layer="28" from-port="0" to-layer="29" to-port="1" />
		<edge from-layer="29" from-port="2" to-layer="31" to-port="0" />
		<edge from-layer="30" from-port="0" to-layer="31" to-port="1" />
		<edge from-layer="31" from-port="2" to-layer="32" to-port="0" />
		<edge from-layer="32" from-port="1" to-layer="38" to-port="0" />
		<edge from-layer="33" from-port="0" to-layer="34" to-port="1" />
		<edge from-layer="34" from-port="2" to-layer="36" to-port="0" />
		<edge from-layer="35" from-port="0" to-layer="36" to-port="1" />
		<edge from-layer="36" from-port="2" to-layer="37" to-port="0" />
		<edge from-layer="37" from-port="1" to-layer="38" to-port="1" />
		<edge from-layer="38" from-port="2" to-layer="40" to-port="0" />
		<edge from-layer="39" from-port="0" to-layer="40" to-port="1" />
		<edge from-layer="40" from-port="2" to-layer="42" to-port="0" />
		<edge from-layer="41" from-port="0" to-layer="42" to-port="1" />
		<edge from-layer="42" from-port="2" to-layer="43" to-port="0" />
		<edge from-layer="43" from-port="1" to-layer="45" to-port="0" />
		<edge from-layer="43" from-port="1" to-layer="50" to-port="0" />
		<edge from-layer="44" from-port="0" to-layer="45" to-port="1" />
		<edge from-layer="45" from-port="2" to-layer="47" to-port="0" />
		<edge from-layer="46" from-port="0" to-layer="47" to-port="1" />
		<edge from-layer="47" from-port="2" to-layer="48" to-port="0" />
		<edge from-layer="48" from-port="1" to-layer="54" to-port="0" />
		<edge from-layer="49" from-port="0" to-layer="50" to-port="1" />
		<edge from-layer="50" from-port="2" to-layer="52" to-port="0" />
		<edge from-layer="51" from-port="0" to-layer="52" to-port="1" />
		<edge from-layer="52" from-port="2" to-layer="53" to-port="0" />
		<edge from-layer="53" from-port="1" to-layer="54" to-port="1" />
		<edge from-layer="54" from-port="2" to-layer="55" to-port="0" />
		<edge from-layer="55" from-port="1" to-layer="57" to-port="0" />
		<edge from-layer="56" from-port="0" to-layer="57" to-port="1" />
		<edge from-layer="57" from-port="2" to-layer="59" to-port="0" />
		<edge from-layer="58" from-port="0" to-layer="59" to-port="1" />
		<edge from-layer="59" from-port="2" to-layer="60" to-port="0" />
		<edge from-layer="60" from-port="1" to-layer="62" to-port="0" />
		<edge from-layer="60" from-port="1" to-layer="67" to-port="0" />
		<edge from-layer="61" from-port="0" to-layer="62" to-port="1" />
		<edge from-layer="62" from-port="2" to-layer="64" to-port="0" />
		<edge from-layer="63" from-port="0" to-layer="64" to-port="1" />
		<edge from-layer="64" from-port="2" to-layer="65" to-port="0" />
		<edge from-layer="65" from-port="1" to-layer="71" to-port="0" />
		<edge from-layer="66" from-port="0" to-layer="67" to-port="1" />
		<edge from-layer="67" from-port="2" to-layer="69" to-port="0" />
		<edge from-layer="68" from-port="0" to-layer="69" to-port="1" />
		<edge from-layer="69" from-port="2" to-layer="70" to-port="0" />
		<edge from-layer="70" from-port="1" to-layer="71" to-port="1" />
		<edge from-layer="71" from-port="2" to-layer="73" to-port="0" />
		<edge from-layer="72" from-port="0" to-layer="73" to-port="1" />
		<edge from-layer="73" from-port="2" to-layer="75" to-port="0" />
		<edge from-layer="74" from-port="0" to-layer="75" to-port="1" />
		<edge from-layer="75" from-port="2" to-layer="76" to-port="0" />
		<edge from-layer="76" from-port="1" to-layer="78" to-port="0" />
		<edge from-layer="76" from-port="1" to-layer="83" to-port="0" />
		<edge from-layer="77" from-port="0" to-layer="78" to-port="1" />
		<edge from-layer="78" from-port="2" to-layer="80" to-port="0" />
		<edge from-layer="79" from-port="0" to-layer="80" to-port="1" />
		<edge from-layer="80" from-port="2" to-layer="81" to-port="0" />
		<edge from-layer="81" from-port="1" to-layer="87" to-port="0" />
		<edge from-layer="82" from-port="0" to-layer="83" to-port="1" />
		<edge from-layer="83" from-port="2" to-layer="85" to-port="0" />
		<edge from-layer="84" from-port="0" to-layer="85" to-port="1" />
		<edge from-layer="85" from-port="2" to-layer="86" to-port="0" />
		<edge from-layer="86" from-port="1" to-layer="87" to-port="1" />
		<edge from-layer="87" from-port="2" to-layer="89" to-port="0" />
		<edge from-layer="88" from-port="0" to-layer="89" to-port="1" />
		<edge from-layer="89" from-port="2" to-layer="91" to-port="0" />
		<edge from-layer="90" from-port="0" to-layer="91" to-port="1" />
		<edge from-layer="91" from-port="2" to-layer="92" to-port="0" />
		<edge from-layer="92" from-port="1" to-layer="94" to-port="0" />
		<edge from-layer="92" from-port="1" to-layer="99" to-port="0" />
		<edge from-layer="93" from-port="0" to-layer="94" to-port="1" />
		<edge from-layer="94" from-port="2" to-layer="96" to-port="0" />
		<edge from-layer="95" from-port="0" to-layer="96" to-port="1" />
		<edge from-layer="96" from-port="2" to-layer="97" to-port="0" />
		<edge from-layer="97" from-port="1" to-layer="103" to-port="0" />
		<edge from-layer="98" from-port="0" to-layer="99" to-port="1" />
		<edge from-layer="99" from-port="2" to-layer="101" to-port="0" />
		<edge from-layer="100" from-port="0" to-layer="101" to-port="1" />
		<edge from-layer="101" from-port="2" to-layer="102" to-port="0" />
		<edge from-layer="102" from-port="1" to-layer="103" to-port="1" />
		<edge from-layer="103" from-port="2" to-layer="105" to-port="0" />
		<edge from-layer="104" from-port="0" to-layer="105" to-port="1" />
		<edge from-layer="105" from-port="2" to-layer="107" to-port="0" />
		<edge from-layer="106" from-port="0" to-layer="107" to-port="1" />
		<edge from-layer="107" from-port="2" to-layer="108" to-port="0" />
		<edge from-layer="108" from-port="1" to-layer="110" to-port="0" />
		<edge from-layer="108" from-port="1" to-layer="115" to-port="0" />
		<edge from-layer="109" from-port="0" to-layer="110" to-port="1" />
		<edge from-layer="110" from-port="2" to-layer="112" to-port="0" />
		<edge from-layer="111" from-port="0" to-layer="112" to-port="1" />
		<edge from-layer="112" from-port="2" to-layer="113" to-port="0" />
		<edge from-layer="113" from-port="1" to-layer="119" to-port="0" />
		<edge from-layer="114" from-port="0" to-layer="115" to-port="1" />
		<edge from-layer="115" from-port="2" to-layer="117" to-port="0" />
		<edge from-layer="116" from-port="0" to-layer="117" to-port="1" />
		<edge from-layer="117" from-port="2" to-layer="118" to-port="0" />
		<edge from-layer="118" from-port="1" to-layer="119" to-port="1" />
		<edge from-layer="119" from-port="2" to-layer="120" to-port="0" />
		<edge from-layer="120" from-port="1" to-layer="122" to-port="0" />
		<edge from-layer="121" from-port="0" to-layer="122" to-port="1" />
		<edge from-layer="122" from-port="2" to-layer="124" to-port="0" />
		<edge from-layer="123" from-port="0" to-layer="124" to-port="1" />
		<edge from-layer="124" from-port="2" to-layer="125" to-port="0" />
		<edge from-layer="125" from-port="1" to-layer="127" to-port="0" />
		<edge from-layer="125" from-port="1" to-layer="132" to-port="0" />
		<edge from-layer="126" from-port="0" to-layer="127" to-port="1" />
		<edge from-layer="127" from-port="2" to-layer="129" to-port="0" />
		<edge from-layer="128" from-port="0" to-layer="129" to-port="1" />
		<edge from-layer="129" from-port="2" to-layer="130" to-port="0" />
		<edge from-layer="130" from-port="1" to-layer="136" to-port="0" />
		<edge from-layer="131" from-port="0" to-layer="132" to-port="1" />
		<edge from-layer="132" from-port="2" to-layer="134" to-port="0" />
		<edge from-layer="133" from-port="0" to-layer="134" to-port="1" />
		<edge from-layer="134" from-port="2" to-layer="135" to-port="0" />
		<edge from-layer="135" from-port="1" to-layer="136" to-port="1" />
		<edge from-layer="136" from-port="2" to-layer="138" to-port="0" />
		<edge from-layer="137" from-port="0" to-layer="138" to-port="1" />
		<edge from-layer="138" from-port="2" to-layer="140" to-port="0" />
		<edge from-layer="139" from-port="0" to-layer="140" to-port="1" />
		<edge from-layer="140" from-port="2" to-layer="141" to-port="0" />
		<edge from-layer="141" from-port="1" to-layer="143" to-port="0" />
		<edge from-layer="142" from-port="0" to-layer="143" to-port="1" />
		<edge from-layer="143" from-port="2" to-layer="145" to-port="0" />
		<edge from-layer="144" from-port="0" to-layer="145" to-port="1" />
		<edge from-layer="145" from-port="2" to-layer="146" to-port="0" />
	</edges>
	<rt_info>
		<MO_version value="2024.5.0-17288-7975fa5da0c-refs/pull/3856/head" />
		<Runtime_version value="2024.5.0-17288-7975fa5da0c-refs/pull/3856/head" />
		<conversion_parameters>
			<framework value="pytorch" />
			<is_python_api_used value="True" />
		</conversion_parameters>
		<legacy_frontend value="False" />
	</rt_info>
</net>
